model/model_pytorch.pth (torch, 221029 bytes, 9 tensors)

lstm.weight_ih_l0 f4 [256, 14]
00000000: 973c 2ebe 204e 9e3c 9f83 fabd b5f8 07be
00000010: 418b 28be 877b 243d 357f 3cbd e608 1dbe
00000020: c561 f03b 9e6f 0abe 7ccb a1bc 43cd 143c
00000030: b3e3 203d 7065 0b3e 405e 75be 1599 63be
00000040: a983 b6be 0f41 a83d decc 643e 5d1b 293e
00000050: e7dc c23d 31be e1bd 0dc6 5fbc 6ef6 07bd
00000060: 505c 1f3e e17a 2b3d 8d3c 393e de50 003e
00000070: 9973 9bbc f784 d63c ef47 543c df11 fb3d
00000080: 25a8 afbd 0d20 ab3c c00f 043e da7a 9bbd
00000090: 2d83 f03d 5bfa e1bd de31 a8bd 15ed cc3d
000000a0: 31c3 93bd 6c86 bcbd f05d 013e 3a96 2c3e
000000b0: ff6b e93d c2d6 e9bd 7343 4fbe ed8e 73bd
000000c0: 2d7f 553d b297 ee3d f5f9 2d3d 4945 333e
000000d0: 2f29 083e 3d17 143d 2c45 0d3e 2016 533b
000000e0: 2d76 3b3e a728 aa3d f231 b73d 7d2c 74be
000000f0: 3016 87bd 4f09 81bd f47f 07be 34c9 a8bd
00000100: 9b1e ba3d 558a 993d d210 91be 6ee8 3dbc
00000110: 3fdb 203e edc1 383c 7f11 bcbd a420 20be
00000120: c0f3 98be 0428 153e 0b7b 90bc 082e 903d
00000130: 3cc3 cabd 403c 803d 2dbd ea3c 3789 e03d
00000140: afb5 693e 7655 03be 538b 113d 16b7 333e
00000150: e97a e7bd 55a9 9f3c 52b9 b7bd 01e2 b9bd
00000160: 039d 60bc a88f 893d c1a6 6b3d 63dc 36be
00000170: ec18 05bd 4948 bfbc 6155 17bc d350 813d
00000180: d0c4 d7bc d432 d8bd 1eea 69bd 24b4 293e
00000190: 23e5 423e f4be 2fbd 8bef 51be cbe7 f9bd
000001a0: cc6f eebc a447 9a3b d435 f53d db06 1c3d
000001b0: 5817 a0bd da6d 903c 38eb 043e 9348 7d3d
000001c0: 5ea9 233d d835 503d 136c f6bc 92c2 06bd
000001d0: d5b8 75be 2217 50bc 763c 393d 34b6 5dbd
000001e0: 99ca b6bd ca35 c1bb afa8 90bc 29c4 6e3d
000001f0: f6c2 d1bd 3062 04be 160c 5abe 8e8b 80be
00000200: 3049 8abe c7d7 5c3e 16b5 bdbc 6d20 123e
00000210: e60f 3d3e 0913 13bd b0b8 98bd b176 b63d
00000220: 3190 7d3d d6d9 43bd 1a5b b53d e013 36bc
00000230: 9049 0dbe a5e3 e4bd 06f1 14be 82fd 433d
00000240: d590 20be 8254 bf3d 6f55 703d 16e8 a73d
00000250: 1997 443d 8a48 653d 130a e23b 4a38 153c
00000260: d972 0e3e 51b9 c23d f9d7 9cbd a387 14be
00000270: 50bf 51be 06b2 cd3c 32d8 26be 29a2 1abd
00000280: 1eff 46be 4ec3 c53d 3965 143d a00b ca3c
00000290: c45b 4bbd 3071 71bd a755 013d 5d94 e73d
000002a0: ba22 bbbc 5cb0 b5bd 9cf0 583c 8ec3 50bd
000002b0: cdb5 29be 124b 2a3d fb27 6ebd d181 243c
000002c0: 4823 4a3e 4d70 173d 092d 41bc b983 513e
000002d0: eafa 8b3d 96b6 ce3d 1ed6 3a3d 44ab adbd
000002e0: 7a93 5fbd d8e5 32be f124 16be d02e 90bd
000002f0: 9522 b13c af24 38bd d84b e2bd f463 e1bc
00000300: a65d 443c 100d f73c 6362 2cbe 187f 743d
00000310: c9f7 ef3c bb9a d13c 3d62 51bd 1877 ad3e
00000320: aa90 08be 3074 56bc efa7 b4bd 8a83 343e
00000330: 65cf 0cbe 739b 6dbd fedb 7bbd eea7 bf3d
00000340: b409 cb3d 942e 79bb 3a9d 9f3d a4d6 1f3d
00000350: 1e39 383d c963 a43d bf64 cb3c 7657 15bd
00000360: 193c 573d 5496 ebbd 9489 ca3d 1aeb 883d
00000370: e4b8 d0bd 983a 273e 5b6f c5bd 2dcc 4e3e
00000380: 533e 6f3e c30f 983e aa54 3b3e 02fb 7bbe
00000390: 750f 123e dfef 7e3d f4f3 59bc ce60 2ebe
000003a0: e1eb 533c f14a 55bd 157a f2bd 52ff 083d
000003b0: 1d48 fe3d 59bb 1a3e b707 2dbc 14df 81bc
000003c0: 10ad 5f3d 10e8 ec3d 6ed1 21bd f73f 613c
000003d0: 2a54 87bd fe90 683d ce65 e1bd 9dea 603d
000003e0: af57 8bbd 8ca7 0ebe 298e b53d dedd eb3d
000003f0: 3fb7 123d 1659 8d3d 900d b4bb 75cc 413d
-0.170153 0.019324362 -0.12232136 -0.13278468 -0.16459371 0.040156867 -0.04601975 -0.15335426
0.007335874 -0.13519141 -0.01975035 0.009082141 0.03927965 0.13612914 -0.23961735 -0.22226365
-0.35647324 0.08215534 0.22343776 0.16514345 0.0951479 -0.11022604 -0.013658059 -0.033193998
0.15562558 0.041865233 0.18089505 0.12530848 -0.01897602 0.02618645 0.012956603 0.12259268
-0.08576993 0.020889306 0.12896633 -0.075917915 0.1174377 -0.1103408 -0.082126364 0.10006157
-0.07214964 -0.092053264 0.1263349 0.16854182 0.11397552 -0.11417915 -0.20240574 -0.059462477
0.052123237 0.11650027 0.042474706 0.17506899 0.1329696 0.036154974 0.13795918 0.0032209232
0.18306799 0.08308535 0.08945073 -0.23845096 -0.06596029 -0.063006036 -0.13232404 -0.082415015
0.09087869 0.07497088 -0.28333145 -0.01159106 0.15708636 0.011276704 -0.091830246 -0.15637451
-0.29873466 0.14566046 -0.017636796 0.0704003 -0.09900519 0.06261492 0.02865466 0.10963672
0.22823213 -0.1282557 0.03553326 0.1755031 -0.1130274 0.019489923 -0.08970894 -0.0907631
-0.0137093095 0.067168534 0.057532076 -0.17857508 -0.03249447 -0.023349898 -0.0092366645 0.06314244
-0.026338965 -0.1055657 -0.057108037 0.16572624 0.19032721 -0.042906716 -0.20501535 -0.12202414
-0.029106043 0.0047082473 0.119731575 0.038092475 -0.078169525 0.017630506 0.12980354 0.06183679
0.039956443 0.0508326 -0.03008083 -0.0329004 -0.23996289 -0.012700828 0.045223676 -0.05412884
-0.08925361 -0.0058963047 -0.01765856 0.05829254 -0.10242264 -0.1292808 -0.21293673 -0.25106472
-0.27008963 0.21566688 -0.023157638 0.14270182 0.18463096 -0.035906825 -0.07457101 0.08909357
0.06190509 -0.047815166 0.08855267 -0.011113137 -0.13797593 -0.11176232 -0.14545068 0.047849186
-0.15680249 0.093422905 0.058675226 0.08198564 0.04799566 0.05597738 0.0068981736 0.009107659
0.13910998 0.095080025 -0.07658381 -0.14504866 -0.20483136 0.025109302 -0.1629341 -0.037752304
-0.19433257 0.09656392 0.036229346 0.024663746 -0.04964806 -0.058945835 0.031575825 0.11307595
-0.022843707 -0.088715285 0.0132409595 -0.050967745 -0.16573258 0.0415755 -0.058143597 0.010040716
0.19740021 0.036972333 -0.011790522 0.20460404 0.068349674 0.10093419 0.045614354 -0.08479932
-0.054584004 -0.17470491 -0.1466253 -0.07040179 0.021622935 -0.04495686 -0.11049622 -0.027513482
0.011985218 0.030157596 -0.16834407 0.05969152 0.029292958 0.025586477 -0.051119078 0.33879924
-0.13336435 -0.013089225 -0.08821093 0.17628303 -0.1375099 -0.058009576 -0.061489098 0.09358202
0.0991396 -0.0038022147 0.077936605 0.039023057 0.044976346 0.08026845 0.024828313 -0.036460362
0.052547548 -0.11503282 0.09889522 0.06685467 -0.10191515 0.16330945 -0.0964038 0.20195074
0.23363619 0.29699525 0.18294016 -0.2460747 0.14263709 0.062240478 -0.013302792 -0.17029116
0.012934656 -0.052073423 -0.118396915 0.033446617 0.12416098 0.1511053 -0.010560921 -0.015853442
0.054608405 0.115677 -0.03950637 0.013748161 -0.0660785 0.0567789 -0.11005746 0.054911245
-0.06803834 -0.13931102 0.088650055 0.11516927 0.03581929 0.069017574 -0.005494781 0.047314126

lstm.weight_hh_l0 f4 [256, 64]
00000000: 909b 3fbd 9605 e73c da7b 343e ef72 b0bd
00000010: 1281 b0be a36f 2cbe 9d96 323e 4165 49bd
00000020: 9eea bbbd c13f 543d 3b0a d8bc 6e7e aabd
00000030: 149f 11bd 10eb 7bbe cc8c 6bbe 62a2 0cbe
00000040: 5998 043e 1e47 18be e659 bcbd c182 3f3d
00000050: 4c6d 89bd 9bfc 173e ba75 c3be 4912 d13e
00000060: 0a2d d73d 1b82 05be ca9c 373d 0c72 91bc
00000070: 55fa ad3d 3bbe 4fbd f4b6 eebe 8920 9dbe
00000080: dc86 f9bd 0fcc 873e 8315 b93d 7ef5 dabd
00000090: 8da2 e9bd 4a05 a5bd 1694 8dbe dc08 52bd
000000a0: 0d88 1ebd 98e3 9fba 6785 30be bafd cebd
000000b0: 862e da3d 7ffb 063e e26e 713d 5f36 09be
000000c0: 1749 86bd f602 40bd aac7 30bd 9b51 07be
000000d0: 6829 eebd e042 9a3c df13 c5bd 927c 18be
000000e0: e539 4dbe 1c38 0cbd 7743 48be ebef 58bd
000000f0: d0ac 1c3e 0ad6 ce3e 04f4 863d 5b8d 373d
00000100: e8fe 68bc 1e14 9a3d ba5a 0d3e 197d 913d
00000110: f32c e03c a315 733e b132 a03e a12b e33d
00000120: dd34 8b3d dbd7 863c ec23 b0bb eec6 be3d
00000130: 2a40 433d 8f6a 61bd d748 ae3d 2cf7 7fbd
00000140: 5162 02be 9d8a f23d 1db9 1d3d 282c a3bd
00000150: 5a22 34be 0e9e 90bc 5472 4cbd b351 023e
00000160: 3fb3 3abe 212c 11be 2849 983d 8244 313e
00000170: 0ac9 b6bd 8800 e93d cd42 2abe cc2c e1bc
00000180: 72ff b6bd 7fcc 5c3d 528e 14be c905 1c3e
00000190: e95c 473c 4055 433e 0c7e 44bd c069 fdbd
000001a0: d4e1 603e 7590 1f3e 0317 48be 7e03 20be
000001b0: b861 063d 17e0 613e 4752 4bbe 3b9b 8e3d
000001c0: ed6b 7cbe dbbe 80be 3033 e8bd b50a 23be
000001d0: 66d6 55bd 913f 233e f11f 8a3e 9be0 42be
000001e0: f78d 68be a283 3e3e 88e4 b43c 1fae fdbd
000001f0: a636 383e 72a2 ce3d 5cbd 8c3c f898 0c3e
00000200: 75fb 12be 9708 eb3d 99b8 2bbd c800 1cbd
00000210: 3875 3dbe 5170 4b3d 6ad1 683c be00 1abe
00000220: da2b f13d fd5d 0ebe e3ad afbd 7c21 80bd
00000230: 3f32 d5bc 6c89 08be d68d 10be 4b30 50bd
00000240: 17ad ba3d c79a a3bc 3d90 163e 54ef ba3d
00000250: 6db9 55be 3bb3 543c 72b3 19be f2ea 2d3e
00000260: bb80 9fbb 4b39 05be 008a ec3c fad1 083c
00000270: 3062 ba3b 33be 0e3e 4862 afbd a3ef 923d
00000280: 2d78 f2bb 4a4c 0d3e f014 d83d c585 2fba
00000290: fe6c 15be 7e29 95bd 3762 5bbd aced c2bd
000002a0: 3a0f 4bbc eb1d ba3d eb40 a43c 7f03 8abe
000002b0: 72ba 1ebd a020 38bb 7f18 163e 0ca1 49be
000002c0: 045c 2b3e 25e7 26bc c82f af3d 06f7 e8bc
000002d0: 4450 893d 8d95 503c 58a9 a43c 3381 06be
000002e0: ccf2 52be 6bc8 efbc 6cd2 83be 0fec 60be
000002f0: 508b e93d 6c5e 443e c3cd 3abd c5b5 ce3d
00000300: 7575 4ebe 268c 993d 805a 503d 96dc 0fbe
00000310: a5d6 99bc 01fa 3a3e bd25 c13e 30f5 acbe
00000320: 6a47 583e cd9d f73d 3369 7cbd a441 eabd
00000330: e5af 023e 6b80 a8be 2294 98bd bf0c dabd
00000340: 88b4 2f3d c17f 36be bf8c 363e b317 9b3c
00000350: ae7b 11be b7fb 41bd 2615 33be a618 953e
00000360: ccc7 27be 2ba2 013c 1ba6 5abe 3cec cd3a
00000370: c891 243e d349 b8bb c187 6dbe 217e e23d
00000380: 8424 99be 2d4b 8d3e df6a 53bc 4a17 4dbc
00000390: 93a9 06be 58c9 a63d 19b9 6cbd e933 8ebd
000003a0: 86a6 0c3e 2c30 393e d198 69bd 282e 84be
000003b0: b0e2 a63e 8756 0c3e 1a09 a4bd 9dc6 40bd
000003c0: a2cf 23be 48b7 11be e559 9bbd 6d7f bbbd
000003d0: 1c46 11be fb8b 463e b47a 90bc 4876 7abd
000003e0: 4953 a7be 184e 833b 8626 52be c550 ffbd
000003f0: bd1a ab3e 2c5a 213e 9f4d 213e 8218 c9bd
-0.046779215 0.028200906 0.1762537 -0.08615672 -0.34473473 -0.16839461 0.17440267 -0.04916883
-0.09175609 0.051818613 -0.026372066 -0.08324896 -0.0355521 -0.24601388 -0.23002928 -0.13733819
0.12948741 -0.14870879 -0.09196834 0.046755556 -0.067103 0.14842455 -0.38175756 0.40834263
0.105066374 -0.13037913 0.04482726 -0.017754577 0.08495013 -0.050718527 -0.46623957 -0.30688885
-0.121839255 0.26522872 0.09037306 -0.10691355 -0.11407957 -0.080576494 -0.27652043 -0.05127798
-0.038703967 -0.0012198566 -0.17238389 -0.10106988 0.10653405 0.13181876 0.058943637 -0.13399647
-0.065569095 -0.046877824 -0.043159164 -0.13214724 -0.11628991 0.018830717 -0.09622931 -0.1489127
-0.20041616 -0.034233198 -0.19556986 -0.05296318 0.15300298 0.40397674 0.06589511 0.04481254
-0.014220931 0.07523368 0.1380414 0.071039386 0.027365183 0.23738723 0.31288674 0.11092306
0.06797192 0.01646035 -0.005375376 0.093152866 0.047668613 -0.055033263 0.08509987 -0.06249158
-0.12732817 0.11842845 0.038506616 -0.079674065 -0.17591229 -0.017653491 -0.04991372 0.12726478
-0.1823244 -0.1417699 0.074358284 0.1731129 -0.08925064 0.113770545 -0.16627045 -0.027487181
-0.08935441 0.05390596 -0.14507416 0.15236582 0.012168148 0.19075489 -0.04797177 -0.12373686
0.21961147 0.1558245 -0.19540028 -0.15626332 0.032808036 0.2205814 -0.19855605 0.069632016
-0.24650545 -0.2514561 -0.11337888 -0.15922053 -0.05220642 0.15942217 0.26977494 -0.19030993
-0.22710405 0.18604901 0.022081628 -0.123867266 0.17989597 0.10089578 0.017180137 0.13730228
-0.14353736 0.11476248 -0.041924093 -0.038086683 -0.18501747 0.04966766 0.014210084 -0.15039346
0.11775942 -0.13903041 -0.08578088 -0.06256387 -0.026024936 -0.13333672 -0.14116606 -0.050827306
0.091150455 -0.019971265 0.1470346 0.091276795 -0.20871516 0.012982185 -0.15009859 0.16984156
-0.004867641 -0.13010137 0.028874397 0.008350844 0.0056879744 0.13939743 -0.085636675 0.07174613
-0.00739958 0.13798633 0.105508685 -0.00066956534 -0.14592358 -0.07283305 -0.05356046 -0.095179886
-0.012393767 0.09087738 0.020050487 -0.26955792 -0.038752027 -0.0028095618 0.14657782 -0.19690341
0.1673432 -0.010186945 0.085540354 -0.028438102 0.067047626 0.012730968 0.02010028 -0.13135223
-0.20600432 -0.029270371 -0.25746477 -0.21965049 0.11403525 0.19176644 -0.045606386 0.100932635
-0.20161994 0.07497434 0.050867558 -0.1404899 -0.018779108 0.18259431 0.37724105 -0.33780813
0.21120992 0.12090645 -0.061623763 -0.11438301 0.12762411 -0.32910475 -0.07450129 -0.106469624
0.042896777 -0.17822172 0.17827128 0.0189322 -0.14207336 -0.047359195 -0.17488536 0.29120368
-0.1638481 0.007912199 -0.21352427 0.0015710662 0.16071236 -0.005624035 -0.23196317 0.110592134
-0.29910672 0.27596417 -0.012903898 -0.01251776 -0.13150625 0.08143872 -0.05779371 -0.06943495
0.13735399 0.18084782 -0.057030503 -0.25816464 0.32594824 0.13704883 -0.080095485 -0.047064412
-0.15997174 -0.14230072 -0.075855054 -0.09155164 -0.14186901 0.19389336 -0.017636634 -0.061147958
-0.3268073 0.0040071122 -0.20522508 -0.124665774 0.33418837 0.15757054 0.15752266 -0.098191276

lstm.bias_ih_l0 f4 [256]
00000000: b75b 0cbe f6d3 56be bc29 57bd 02bf 62be
00000010: 1afa 07be 381f 693c d75c f33c 951e 9abd
00000020: 7ac2 33bd 4b5d 12be 82c7 b6bd b024 24be
00000030: 38ea 4dbe f158 323e e916 05be 1319 2ebe
00000040: cbdc 7c3d 164e 4abe aa14 efbd 1065 a5bd
00000050: ddc4 a4bc b59f 13be 96dd 31be 9c2e 16ba
00000060: 69c3 74be aac5 90bd 2597 4e3e a9d2 8fbd
00000070: 153d 513e 8c4d 5cbe 1715 9dbe 3ff5 bebd
00000080: 54bc 323c 9f6a 91bd cf56 c7bd 82ef 38bd
00000090: b67e 78be 59e8 b3bd b970 a2be b510 5e3d
000000a0: 2f32 5bbe 6bfc 03be 7e3d 19be e87a cf3d
000000b0: c7d8 6abe 7d14 b53d 2a51 57bd 31b3 bebd
000000c0: bf22 29be 69fa 633c 7e69 05be 5f2f 34be
000000d0: ea82 a1bd c0cb 9a3d f00f 923d 5b4d 163b
000000e0: e3c4 583d 7308 d7bd e245 1b3c 4b62 4c3e
000000f0: 95b7 01be e1e2 56be 9577 20be 6709 07be
00000100: 62a6 7fbe 0f35 64bd a81a a6bd 455e 1ebe
00000110: 05ce d4bd 9fe6 883c b68e 81bd 3da2 e0bc
00000120: df54 853d 5ee5 a7bc 1e47 0dbd dca3 cabd
00000130: 5f6f 77be 9fdf ae3c b258 13be e001 85be
00000140: 50b2 35bd c16c 1b3c a3fd 82bd f271 0d3d
00000150: 6711 62be a64e 93bd 57b7 d5bd 8dfe 163b
00000160: b2e8 b4bd fc16 5cbc f5b5 1c3e b3c2 7fbe
00000170: 3459 a93d e2cd f1bd 4160 adbe 02f9 5ebe
00000180: 6c83 01be 18d0 c4bd 9369 49bd 7d1e 7fbb
00000190: 8b33 a5be a701 183b 98ee 06be 991d 9b3d
000001a0: 7742 50be 4914 4bbe cc84 e63c 84f0 fc3c
000001b0: affb 17be 60ba cd3d 67bc b0bd bf05 c6bb
000001c0: b31d d2bd b9c6 733c bdec f9bd 3f14 c6bc
000001d0: 6580 00be 3d4a 03be d70e a53d 1c25 9d3c
000001e0: 955b b2bd c2f9 9cbc 67fc 19be a664 8f3d
000001f0: c38c 78be 27a4 02be c58f fdbc 0114 32be
00000200: 7dc2 9f3d b88f 4a3e 7d11 e7bd 17df 6fbd
00000210: 674f f6bc 6727 b6bc 9dea 92be b94b cabc
00000220: d2e8 d3bd 33d5 ae3c b496 403c 67c6 27bb
00000230: 4630 dcbd 269f 213e b96d 2a3e c31d 523d
00000240: a188 843e 1e14 1dbd 1992 143e e38e 00bd
00000250: d02d 59bc 3708 5abc 2d4d e0bd 168b 2c3d
00000260: 96a5 5b3d fff6 9f3d 1506 263e 4c64 cbbd
00000270: 9886 14be b76e 973c 1993 56bd e3f0 523b
00000280: b472 a2bc dccc 91be eaa9 413d 75cc 5bbe
00000290: c123 313e 3053 a2bd 77cf 0dbe 3390 183d
000002a0: 8cc5 463d 7153 86bd fd7b df3d 7443 da3d
000002b0: fed4 38be 8692 13be f487 e3bd 498b 9c3c
000002c0: 6d6c 343e 6b16 aabd 1e34 c3bc 7a4a cd3d
000002d0: fade 93bd 0c8b a4bd 5154 b8bd 8560 c53d
000002e0: 451d 063e 2f41 63bd 7cf9 2d3e d002 6d3e
000002f0: 99df 1bbe aee1 05be 31dd c63c 6cc8 503d
00000300: 9731 513d 57ed f7bd f94d 273d 370a 18be
00000310: 986a 87be 24c5 223e f187 14be 9917 cebd
00000320: fde6 24bd 4525 3f3c 6e86 fabd 704f efbd
00000330: b0e1 0ebe afc1 ce3d 8786 3abe 85db 4f3b
00000340: ffe1 1c3c cd2f f7bd d370 f43c 447b 053c
00000350: 0b8e 48be fae1 d1bd ce83 47be d791 b8bd
00000360: 4cf9 01be 3850 ccbd bae3 043e 371f 40be
00000370: 98b3 28bd 4344 7fbe 31bc d6bd 556f fdbd
00000380: 9090 c93c d073 d3bd 5ef8 063c f24b 21bd
00000390: 786e edbc daf5 22be e3c4 87be cde8 88bd
000003a0: 5e1f 90bd ab8c 03be 8da7 58be ec0e 683c
000003b0: 8cc1 24be 5da1 16bd c253 ffbd 33b2 c2bd
000003c0: dc50 48be fba1 79bd 00e3 84be 7278 cebc
000003d0: ebc2 a8bd d926 a3bc 4dc4 b7bd da7c b4bc
000003e0: 36cf cc3d f57f 3cbe 3b0f 47be def1 c7bc
000003f0: c27f 78be 9434 3cbd d494 01be 3677 f4bb
-0.13706861 -0.20979294 -0.052530035 -0.22143176 -0.13279 0.014228635 0.029707355 -0.07525364
-0.04388664 -0.14293401 -0.08924772 -0.1602962 -0.20108879 0.17416741 -0.12997021 -0.17001753
0.061734002 -0.1975635 -0.11673863 -0.08075917 -0.020113403 -0.14416392 -0.17369685 -0.0005728991
-0.23902668 -0.070689514 0.20174845 -0.07022602 0.20433457 -0.21513957 -0.30680153 -0.09324121
0.010909159 -0.071004145 -0.09733354 -0.045150287 -0.24267086 -0.08784551 -0.31726626 0.05421515
-0.21405862 -0.12889259 -0.14964864 0.101308644 -0.22934256 0.088417985 -0.05256764 -0.09311522
-0.16517161 0.013914683 -0.13028523 -0.17596196 -0.07886298 0.075583935 0.07131946 0.002293429
0.05292214 -0.104996584 0.009477111 0.19959371 -0.12667687 -0.20984985 -0.15670617 -0.1318718
-0.24965814 -0.055714663 -0.08110553 -0.15465648 -0.103908576 0.016711531 -0.06326048 -0.027421111
0.065103285 -0.020495113 -0.03449165 -0.09894535 -0.24163578 0.021346865 -0.14389303 -0.25977993
-0.044359505 0.009486378 -0.063960336 0.034532495 -0.22076951 -0.071927354 -0.1043536 0.0023039908
-0.088334456 -0.013433214 0.15303786 -0.24976616 0.08268967 -0.11806847 -0.33862498 -0.21774676
-0.1264779 -0.09610003 -0.04917295 -0.0038928085 -0.32265887 0.0023194344 -0.13176954 0.07574005
-0.20337854 -0.19831957 0.028139494 0.030876406 -0.14842103 0.10045314 -0.08629685 -0.0060431655
-0.10259571 0.014878922 -0.12203357 -0.024179576 -0.12548979 -0.12821288 0.08059471 0.019182734
-0.08708874 -0.019162063 -0.1503769 0.07001619 -0.24272446 -0.12757932 -0.030952344 -0.17390443
0.078007676 0.19781387 -0.112826325 -0.058562364 -0.030067159 -0.022235585 -0.2869462 -0.02469431
-0.10347141 0.021341896 0.01175468 -0.0025600435 -0.10751395 0.15783367 0.16643418 0.051297914
0.2588549 -0.038349263 0.14508857 -0.031386267 -0.013255551 -0.013307623 -0.1095222 0.04212483
0.053624712 0.07810783 0.16213258 -0.099312395 -0.14504468 0.01848541 -0.052386377 0.0032187037
-0.019830085 -0.28476608 0.047281183 -0.21464713 0.17298795 -0.07926023 -0.13848673 0.037246894
0.04852824 -0.06558884 0.10912321 0.10657397 -0.1805 -0.14411363 -0.111099154 0.019109385
0.17619486 -0.08305057 -0.023828562 0.10023971 -0.07220264 -0.080343336 -0.09000457 0.0963755
0.13097103 -0.055482086 0.16989702 0.23145604 -0.15222014 -0.13074371 0.024275394 0.050972387
0.051072683 -0.12105816 0.040845845 -0.14847647 -0.26448512 0.15895516 -0.14504983 -0.10063095
-0.04025935 0.011666601 -0.12232672 -0.116850734 -0.1395328 0.10095536 -0.1821538 0.0031716537
0.009575366 -0.12069664 0.029838955 0.008147065 -0.19585435 -0.1024818 -0.19483873 -0.09012192
-0.12692755 -0.09976238 0.12977496 -0.18761908 -0.0411869 -0.24928384 -0.104851134 -0.123747505
0.024605066 -0.10324824 0.008237926 -0.039379068 -0.02898334 -0.15914097 -0.265174 -0.06685028
-0.07037233 -0.1284663 -0.21157666 0.014163714 -0.16089457 -0.03677498 -0.124671474 -0.09506645
-0.19562095 -0.060945492 -0.25954437 -0.025203917 -0.08240303 -0.019915985 -0.08972988 -0.02203219
0.1000046 -0.18408187 -0.19439404 -0.024407323 -0.24267486 -0.04594858 -0.1265443 -0.0074605

lstm.bias_hh_l0 f4 [256]
00000000: 548e 0bbe 9534 b3bd 2fa4 e1bd 8b65 aabd
00000010: 85f0 68be d582 953d a4a9 75bd 533c 1a3d
00000020: 1dc2 c6bb b4d9 2e3d 3a99 86be 513a ec3c
00000030: 40c7 23bd a25d 4f3d 978b e8bd 1a6c a3bd
00000040: 571c 8c3b 0bea 10bc cf9c 5ebc 9906 94bd
00000050: 5705 21be 6a3c a8be ce84 19be 370d 8a39
00000060: bc86 dcbd 0697 c3bd 133b 2e3e 8c6b 99bd
00000070: 2589 043e fe0d 9bbd da55 b4be fedf f1bd
00000080: 8f32 c4bd 36b9 54bd b1ef 5ebe 374e 89bd
00000090: 7a4f 39be b734 4ebe 3bec b9be f590 193c
000000a0: 1062 23bd 6f55 dfbd c641 d23c 51b6 c73d
000000b0: 10b1 21be 7200 573d a2a5 7e3c bd0a 5fbd
000000c0: e8e5 80be 72b5 81bd 8309 5dbe 9e24 353d
000000d0: 1764 c23c aa81 8bbd e04f b83d 8222 1fbe
000000e0: 29af 0dbe 2caf 25be 3cc4 44bd 051c c73d
000000f0: 40b2 77be bf11 5fbe 95eb 53be 5e0f d23c
00000100: 0550 9abe 2bbd 4e3c 884b eebd c320 8dbd
00000110: b7ce 3ebd 94a4 463e 8a19 1abc fb77 1abe
00000120: 548c 483d 6405 18be 03bb 673c 20fd 17be
00000130: 2a7c 95be d8eb c93d b643 1dbe 710d 3bbe
00000140: 203e 7e3a c6ec c4bc 5938 b03c 0e3a bcbb
00000150: 4a70 b9bc fbc8 6dbe 596d 33bd 278f 733d
00000160: 650d 0fbe b360 a3bc 71c9 7f3e dd5b 80be
00000170: 6b46 433e 251f 58bd f453 abbe 2a63 2cbd
00000180: e215 22bd 0d5a 0d3c 303f dcbd c239 e5bc
00000190: 599d 75be b3c4 6cbe 3784 e7bd 4fb0 fb3d
000001a0: ea54 13be 940d 78be de86 5a3d aa0f f239
000001b0: 7d19 65be aab0 af3b 0789 3a3d e504 33bc
000001c0: 742c 21be f1f0 14be 1c3c 16be 4c98 ec3c
000001d0: c896 0fbe a87b 4cbe 4e7f 0abd f09e 753d
000001e0: 6445 12be 3dda 68be ae2c dfbd 98dd 6e3d
000001f0: 7442 7ebd 8692 74be 754f 0abe 05c7 9fbd
00000200: 25ca 9d3c 6f7b ae3c 74fc 05be 1e34 b3bc
00000210: 3b0c 0cbe 004c 473b 6230 25be e420 18bd
00000220: d79f 97bc bb4b a4bd fba9 9dbd 06fd 4dbd
00000230: c905 a5bd b961 793e 9d36 863d e89c 87bd
00000240: 06f2 083e fc3c d63d e9e4 c0bb 31d0 043e
00000250: 2541 74bd 904c 89bb 6b59 c53c c211 b33d
00000260: 1467 de3d 6717 9f3c cdf4 f63d 8784 9f3d
00000270: d2a5 95be 7f6a 9e3a 15bf 1abe 2f3e e5bd
00000280: 48c4 fabd c0c8 aebe 69b6 be3c b53f 90be
00000290: 8cf4 a33c 8310 dfbd f3e0 ffbd 6bcb 1e3c
000002a0: a95f 06be 3fd0 423d 1523 ccbd 0983 d83d
000002b0: 9b93 debd 23d8 24bd 88ad 363d 06b7 223e
000002c0: 55ce 8abc 607d 09be b37c a7bd 9156 f6bc
000002d0: dd94 6b3d 2d08 85bd d2e2 fabd d92d 2dbd
000002e0: 87b8 183e 77f1 a4bc bce3 8b3d a885 ee3c
000002f0: 7e37 77be f456 39bb cdd3 b13d 7932 17be
00000300: 3a88 19be 5bd1 2d3d e1ac 8dbd 1d5f d6bd
00000310: 3ae8 abbe 6073 433d a792 39be c9aa 31be
00000320: 9ec6 87bd 9351 ccbd 6139 72be 089d 99bd
00000330: 1337 e5bd f543 babc ebce 44be a439 e8bc
00000340: 84a8 213e 0464 16be f85e fb3c a345 a53d
00000350: 8026 79bb 07ad 9dbe d946 0dbe 08a6 27be
00000360: 0baf 7dbe 3ce7 14bd d090 2a3d 3be1 3cbe
00000370: 623a 4abe 082e bfbd 71e8 4cbe 039c a9bd
00000380: 2553 fabd 3365 09bb 521a 20be b102 223d
00000390: 4948 0bbe bcaa 63be b2b7 a8be 557e 1cbe
000003a0: 5ee3 84bc 050e 37be 5657 19bd af6c 903d
000003b0: 3fc2 27bd d61e 3cbe 4190 3ebd be6f 81bd
000003c0: e604 b3bd 31b3 a3bb 3295 80be 7517 5abd
000003d0: 78b4 f9bd 8774 9ebd e0fe 06be 2116 c6bd
000003e0: 99be 7e3d 28f5 84be 100a b43c 3214 8abd
000003f0: 7e1f 91be 31f1 c7bd 7b82 59bd fc13 8f3c
-0.13628513 -0.087502636 -0.11017644 -0.08320149 -0.22748001 0.07300345 -0.059976235 0.037655186
-0.0060656206 0.042688087 -0.26288778 0.028836401 -0.03998494 0.050626405 -0.1135475 -0.07979603
0.0042758393 -0.008844863 -0.013587191 -0.07227821 -0.15724693 -0.32858592 -0.14992067 0.00026331257
-0.10767886 -0.0955029 0.17014723 -0.07491216 0.12942941 -0.07571028 -0.3522175 -0.11810301
-0.09579956 -0.051934443 -0.21771123 -0.067043714 -0.18096724 -0.20137297 -0.36313042 0.009372939
-0.03988844 -0.10904967 0.025666129 0.09751571 -0.157902 0.05249066 0.01554242 -0.0544536
-0.25175405 -0.06333436 -0.2158566 0.044224374 0.023729367 -0.06811841 0.0899961 -0.15540507
-0.1383635 -0.16180104 -0.048038706 0.09722141 -0.2418909 -0.21784113 -0.20695336 0.025642093
-0.30139175 0.012618343 -0.116355 -0.068910144 -0.046583857 0.19398719 -0.009405503 -0.15084831
0.048961952 -0.14845806 0.014143708 -0.14842653 -0.29196292 0.09859437 -0.15357861 -0.18266846
0.00096985884 -0.024038684 0.021511244 -0.0057442253 -0.022636551 -0.23221199 -0.043805454 0.059462693
-0.13969953 -0.01994357 0.24979188 -0.25070086 0.19069831 -0.052764077 -0.3346249 -0.042086758
-0.03957165 0.008627427 -0.107542396 -0.027981643 -0.23985805 -0.2312191 -0.11304515 0.122894876
-0.14387861 -0.2422393 0.053351276 0.00046169508 -0.22373004 0.005361636 0.045540836 -0.01092646
-0.15739614 -0.14545037 -0.14671367 0.028881215 -0.14022362 -0.19969046 -0.033812813 0.059966028
-0.14284283 -0.22739501 -0.10897194 0.058316797 -0.062075093 -0.2388402 -0.13506873 -0.07801632
0.01926143 0.021299092 -0.13084584 -0.021875437 -0.1367654 0.003041029 -0.16131738 -0.037140742
-0.018508835 -0.08022257 -0.07698437 -0.05029013 -0.08057744 0.24353684 0.065533854 -0.06621724
0.13373575 0.104608506 -0.005886663 0.12970044 -0.05963244 -0.004190035 0.02409049 0.087436214
0.10859504 0.019420339 0.12058411 0.077889495 -0.29228073 0.0012086182 -0.15111955 -0.11193501
-0.12244469 -0.34137535 0.02328034 -0.28173605 0.02001407 -0.10891821 -0.124940775 0.009692053
-0.13122429 0.04756188 -0.09967629 0.10571868 -0.10867997 -0.040245187 0.044599086 0.1589013
-0.01694409 -0.13426733 -0.08178081 -0.030070575 0.057515014 -0.064957 -0.12250294 -0.04228005
0.14914142 -0.02013467 0.06830546 0.029116467 -0.24142262 -0.0028280588 0.08682976 -0.14765348
-0.14993373 0.042435985 -0.0691774 -0.1046736 -0.33575612 0.047717452 -0.1812235 -0.17350306
-0.0662968 -0.099764965 -0.23654701 -0.075006545 -0.11192145 -0.022737483 -0.19219558 -0.028347798
0.1578694 -0.1468659 0.030684933 0.08069923 -0.0038017333 -0.30796072 -0.13796557 -0.1637193
-0.24773805 -0.036353335 0.04164201 -0.18445294 -0.19748834 -0.09334952 -0.20010544 -0.0828171
-0.1222289 -0.002096486 -0.1563504 0.039553348 -0.13601793 -0.22233099 -0.32952648 -0.15282567
-0.016221698 -0.17876442 -0.037436806 0.0705198 -0.040956732 -0.18371138 -0.04652429 -0.06320141
-0.08741169 -0.0049957265 -0.25113827 -0.053245027 -0.12192625 -0.077370696 -0.13183165 -0.096721895
0.062193487 -0.2596829 0.021977454 -0.06742133 -0.2834434 -0.097628005 -0.05310295 0.017465584

lstm.weight_ih_l1 f4 [256, 64]
00000000: 116f db3c 3b04 1abc a8f5 d33c e2cb 32bc
00000010: ccbb adbd f197 d4bb 4d93 03be 0d27 37bd
00000020: 7d7c 83bd 83ad cbbc e720 953d 88da 91bc
00000030: 6248 3abd b9ff 0a3d e529 3fbd bea0 41bd
00000040: 990f 2f3d bb58 893c 763c c4bd 8fb3 be3d
00000050: 1e8b 9c3d 6e01 2cbd f7d9 82bc 96f8 d23d
00000060: cad8 c4bd 0ab1 873d 5ab0 debd 484f 603d
00000070: af1a e6bd 43a8 323b f525 b3bd 6571 72bd
00000080: 7735 c3bd 36ef 31bd dc7b d43d cbed c13c
00000090: 9fb6 363d 5c9e a3bc da01 ea3c c0a0 b1bc
000000a0: f52c 9fbd 75d7 93bd b83c 073d 322f f5bd
000000b0: 9aa4 84bc 096a 613d 4df5 b33d 167d 41bd
000000c0: c605 02bd ad99 bd3d ac47 cabc 7669 52bd
000000d0: 052d a63b 8ae3 26bd 6977 14be b660 e8bd
000000e0: c081 b33d 7951 e6bd fe60 853d 2b04 fbbc
000000f0: bc1b a43b 2bc5 5abd df85 f9bc 029d fbb9
00000100: 3e38 4c3d dd48 ab3c b195 38bc a9db 643c
00000110: b49b b53d e8d1 17bd cd85 0dbe b8b5 8d38
00000120: 46bc 85bb 6c48 76bb 4059 33bd 6f16 39bd
00000130: 5924 aebd 3beb b7bd cd5a 1cbd 89c1 08bd
00000140: 63bf c2bc b60a e33c e29d 88bd a304 0d3c
00000150: 2e3a 133c 8c54 453d 71c1 1abc b2c7 023d
00000160: a78f a33c 30d8 d93d 23ba 1e3d 7bc7 d6bc
00000170: 31e9 2cbe 8921 c6bd a5b0 f4bc 7567 13be
00000180: 81e3 b5bd 5dd4 e4bd 3b7c 31bd 3ef6 303d
00000190: cf9c b63d d007 bdbd 388d 64bd 130e 95bd
000001a0: 8b70 afbd 4f14 1dbe e63e 7dbd dd16 953c
000001b0: 3b10 09be 5d21 bfbd e5f6 5bbd c587 6f3d
000001c0: dc5b 333d 8404 febd 71b5 12be e7fd db3d
000001d0: a601 7f3d 61c5 5fbd 2dda 9ebd 6535 14bc
000001e0: b011 803d ce17 293d 1900 9b3d a899 bd3d
000001f0: 4b04 9ebd da21 ae3d fac4 0b3d 8ae9 d03d
00000200: 1b92 413c 7fe7 9839 897b 2ebe 2218 6b3d
00000210: a837 ebbc 52f9 debc 1486 e2bd 92d7 d8bd
00000220: a7f1 abbd 9cd1 ffbc 9595 5b3b 695e bbbd
00000230: 0592 843d bc28 d23d edcc 1a3c a2f3 12bd
00000240: 2000 263d ee4c 18bd 4ab1 903d 6e71 2c3e
00000250: d58a 8a3d 26bd 08be 9677 37bc 6400 c6bc
00000260: e6c4 50bb 4529 0b3d 165c 53bd ba35 8bbd
00000270: 0c3b 433d 34ae 9b3d c776 543d b6fa c9bd
00000280: 3bda 40bd 61d1 81bd 5905 99bc 4c12 68bb
00000290: 7d4c 3bbd 8846 28bd 2bad 78ba 55c9 99bd
000002a0: af88 343d a950 b03d f929 09be d5c7 24bb
000002b0: b7b4 d1bc 53e1 f43d 81ac 923d 6713 b33d
000002c0: 9f49 ef3d e3ac 85bc 7bc5 f6bb c09f 823d
000002d0: 55c4 fa3c 45c0 17be d007 0cbe b836 b3bd
000002e0: d988 c838 20ea a53d c980 dd3d eeb6 a23d
000002f0: 7996 133d a60b c5bd 4719 b53d fe8d c83d
00000300: ef62 243e 817e 093e 997b 2ebd c9e2 6cbd
00000310: ed06 b1bd efef 8ebc 19c6 afb9 af44 c83b
00000320: 333e 99bc 0efe 22bd 99df 87bd 5a09 bdbc
00000330: 0d55 edbd 7a3e d5bc 6229 793d 9eb5 353c
00000340: 2ee5 bebd c141 03bd d133 f0ba dee6 36bc
00000350: 5af2 92bd 974e 013e 7ee3 623d ff07 773c
00000360: 518d 303e 0a31 1e3e ae57 edbd 8f64 0abd
00000370: 6efe 09be 8548 3f3d c9b6 00bc f636 0fbe
00000380: 92f3 13be daad 1ebe f8ac fabd 2f1f 96bd
00000390: c822 d93a bf22 91bd 3fd8 2abc 7d5d 9fbb
000003a0: 0736 b1bd 9c67 bfbd 3400 f03c 72f0 753d
000003b0: 9be0 303d a7e5 6cbd 37f1 c7bc e6d0 29be
000003c0: b948 643d 4ada 44bd 35de 5cbc 2272 623d
000003d0: e260 a73c 16d1 633d debd fd3b ded6 1a3e
000003e0: 1fa5 1b3e 5779 13bd 78ca 26bc 5df4 16bd
000003f0: 83aa a73c 375c d13d bd99 37be 2b20 c9bc
0.026786359 -0.009400423 0.025873974 -0.010912867 -0.08483085 -0.0064878394 -0.1284916 -0.044714976
-0.06420229 -0.02486301 0.07281666 -0.0178044 -0.045479186 0.033935282 -0.046670813 -0.047272436
0.042739484 0.016765943 -0.095818445 0.09311592 0.07643722 -0.04199355 -0.015973074 0.1030132
-0.09611662 0.066255644 -0.1087348 0.05476311 -0.11235558 0.0027260936 -0.08747474 -0.059190173
-0.09531682 -0.04344102 0.10375187 0.023672959 0.044607755 -0.019972973 0.028565336 -0.021683097
-0.07772247 -0.072188295 0.03301689 -0.119718924 -0.01619177 0.055032764 0.08787022 -0.047238432
-0.031743787 0.09257827 -0.024692379 -0.051370107 0.0050712847 -0.040744342 -0.14498676 -0.11346571
0.08764982 -0.112460084 0.065126404 -0.030641636 0.005008189 -0.05341069 -0.030459343 -0.0004799143
0.049858324 0.020908767 -0.011266158 0.013968387 0.08867589 -0.037065417 -0.13820572 6.757252e-05
-0.004081282 -0.0037579788 -0.043786287 -0.04518741 -0.085030265 -0.089804135 -0.038172532 -0.033387695
-0.0237729 0.027715068 -0.06670739 0.0086070625 0.008986039 0.048176333 -0.009445534 0.031928726
0.01996596 0.106369376 0.038751733 -0.026218167 -0.1688583 -0.09674365 -0.029869387 -0.14394934
-0.088812836 -0.111733176 -0.043331366 0.043203585 0.089166276 -0.09230006 -0.05579874 -0.07278075
-0.08566388 -0.15339778 -0.061827563 0.018199379 -0.13385098 -0.093325354 -0.053702254 0.05847909
0.043788776 -0.12403205 -0.14327027 0.107417874 0.06225743 -0.054631595 -0.077564575 -0.009045933
0.062533736 0.041282468 0.07568378 0.09257823 -0.077156626 0.085025504 0.0341234 0.10200794
0.011814619 0.00029164177 -0.17039312 0.05739606 -0.028713062 -0.027218495 -0.110607296 -0.10587992
-0.08395701 -0.03122788 0.0033505906 -0.09148867 0.064731635 0.10261676 0.009448272 -0.035876878
0.040527463 -0.03718274 0.07065065 0.16840145 0.06764761 -0.13353404 -0.011197945 -0.024170108
-0.0031855642 0.033974905 -0.051601492 -0.06797357 0.047663733 0.07601586 0.051871087 -0.098622724
-0.04708312 -0.06338764 -0.018679308 -0.0035411296 -0.04572724 -0.04108289 -0.0009486253 -0.07509104
0.044075664 0.08609135 -0.13394918 -0.0025143523 -0.025598867 0.1195704 0.07161809 0.08743935
0.11683964 -0.01631779 -0.0075308657 0.06378126 0.030611197 -0.14819439 -0.13674855 -0.08750671
9.562233e-05 0.081012964 0.108155794 0.07945047 0.036032174 -0.096213624 0.08842712 0.09792708
0.16053365 0.13427164 -0.04259834 -0.057833467 -0.08643899 -0.017448394 -0.00033526195 0.0061117033
-0.018706417 -0.039793067 -0.06634445 -0.023075748 -0.11588488 -0.026030768 0.06083048 0.011090664
-0.09321056 -0.03204513 -0.0018325989 -0.011163441 -0.07175131 0.12627636 0.055392735 0.01507759
0.17241408 0.15448394 -0.11588989 -0.033787306 -0.13475963 0.04670002 -0.007856079 -0.1398581
-0.14448383 -0.15496007 -0.122400224 -0.073301665 0.0016566152 -0.070867054 -0.010427534 -0.0048634396
-0.08652883 -0.09345934 0.029296972 0.06004376 0.04318295 -0.0578362 -0.024407012 -0.16583595
0.055733416 -0.04805974 -0.013480713 0.055284627 0.02043194 0.05561932 0.007743581 0.15121028
0.15199707 -0.03600439 -0.010180108 -0.036854137 0.020467049 0.10222667 -0.1792974 -0.024551472

lstm.weight_hh_l1 f4 [256, 64]
00000000: 4f42 353e 0015 92bc 2c39 3cbe 1c52 a83d
00000010: 3b49 4a3a ddaf 0dbe 65de 033d 5372 363d
00000020: ee20 acbc a689 9ebc 4b9d 12be 3dd8 9c3d
00000030: 232d 3c3d bdc0 f2b9 953a 1b3e e1d0 9dbd
00000040: 1b9b f33c 5729 1bbc 1907 5b3d 4a76 c3bd
00000050: d094 0c3d 8596 18be c827 00bd c7bf 25be
00000060: 0cf7 133e 15c5 fd3c adf1 e5bd 7ce7 00be
00000070: 9a69 953d 005c d4ba 4e85 623b 0e52 003e
00000080: b4d7 1b3d a295 34be cd70 403d 9fed dcbd
00000090: 4ec1 5bbd 30d2 f0bd 27e3 123e db96 f3bc
000000a0: 8ad2 1cbe 8755 0d3d 5df0 0ebd d342 2ebe
000000b0: 8243 343c 8f10 a9bc b628 853d 5022 59bd
000000c0: 13f5 c2bc effa dd3d d439 823d 8dfb a23c
000000d0: 00c4 b8bc fa1e 75bc d938 e73c c696 4cbc
000000e0: a20e f83d 8660 683d 6e91 9b3c 4a77 943d
000000f0: 2fc8 f7bc 3b54 11be 001e a6bd 74c0 dfba
00000100: 6feb 193e 857d e3bd 5366 a53c 28ae 973c
00000110: 9606 14bd a962 12bd 8133 01be 699b 07be
00000120: fe4e e13b 6774 1b3d 7d43 933c 0413 d53c
00000130: 5034 21bd b57a 1f3d 193e 3a3d 9074 65bd
00000140: 2379 c03d fa58 13bd ac93 1a3d f297 aabc
00000150: 0315 3abc 6f9e 06bd f9be 06be 7b95 2f3c
00000160: c045 f63c 9a56 da3d c00b b4bd 09eb 92bc
00000170: 2a60 64bd 9269 723d a87f b53d 7a2d 96bc
00000180: 3467 57bc bb59 f7bd 23f8 dc3d e104 b6bc
00000190: 611d a0bd 19bf 5dbd feaa 243e 7caa eabd
000001a0: 8571 3ebd 29d9 d63c 5b90 a23d ce66 f5bd
000001b0: 586e 2dbe 0894 09bd 62ec b33d 2dba c63c
000001c0: 874f dcbc 4c56 203e 3723 a33b 2e01 14be
000001d0: b90a 85bd 6795 de3d 8e10 d53c 220e 8d3c
000001e0: c6a3 053e 7f2b 18bb f544 d7bd dd57 cbbc
000001f0: d48e 543d f194 07bd 7c94 9bbd 3a2f 103e
00000200: 48ac d6bc cf1e 21be 19dc 86bd 1d24 bc3b
00000210: 78d2 033d f584 ab3a 7636 323d 00d2 ccbd
00000220: a657 3bbe 62e7 c8bd b56c b1bd 284d e83d
00000230: cf1c e9bc b332 0c3c e5b4 363e 963e 40bd
00000240: 728a 25bc 5161 8e3d 18de 343e 5912 983a
00000250: f590 343e d9ee 1dbe 5cf4 9fbd 6f20 25bd
00000260: bb75 3e3e da55 ae3d 27dc 88bd f4db 0fbe
00000270: 2ce0 b83d 22a8 b73d db57 00bd ac99 d0bb
00000280: e44e fb3d 5c70 d2bd 5207 5b3b 1c67 7f3d
00000290: cd07 07be a5ba d2bd a81e a33d 55c3 2bbd
000002a0: ebd8 373d 0b57 44be fd27 503d 3ffd 0bbe
000002b0: d8fb 983c cfe4 b5bc d380 193d af01 b8bd
000002c0: 8625 1bbe f6a6 2e3e b05b 1c3d cdd4 f7bd
000002d0: 14db e6bb ee3f 873c b373 6a3d 9cd1 963d
000002e0: 8fab d63d 200a 51bd 74a1 3a3c 8e34 43bd
000002f0: 011f 223d 0933 e8bd c561 6cbd d003 3f3d
00000300: 7f57 963d 07dc 8abd b98a a13c c070 343e
00000310: 33a7 543b 9c4d 0fbe 558f ecbd d19a a5bd
00000320: c173 d0bd ca09 ddbd e27c 873c 81b1 2d3c
00000330: 287b 113e a195 093d 9029 03bd 6c99 e5bc
00000340: 9aa2 bb3d b5b5 fbbd ff49 9fbd ddc1 3e3d
00000350: 2ba7 56bc 34d0 983d 7a34 913c eb5a fdbb
00000360: 5592 22bd 75c1 373e 3453 25be d997 913c
00000370: a628 733c 547a 9a3c 30e3 923d a7e9 b43c
00000380: 72e5 413d 1710 9abd ec91 c23c a57a 8fbd
00000390: a682 bc3d bae4 03bd a4a0 ab3d c4b6 2dbe
000003a0: 5336 263d 3f8a 81bd 6c48 de3d e9ee b03d
000003b0: c7ed 83bd a47a 133d 4776 ed3d 0e61 da3b
000003c0: 65b9 103e 2cac 0d3e 3b7d a33c 03ac 10bd
000003d0: 7c28 46bd 54b3 ad3c c1df 133d 3cf8 27bd
000003e0: 3ee6 d43d 1aad 47bb 0f47 0bbe 5a7b 63bd
000003f0: 272b 143b 25c1 26bd 8b8e a4bd 6ed1 503d
0.17701076 -0.01783228 -0.18381184 0.08218786 0.00077166007 -0.13836618 0.032194514 0.04454262
-0.021011796 -0.019352745 -0.14317815 0.07658432 0.045941483 -0.00046301438 0.15159066 -0.07705856
0.029737046 -0.009470305 0.053473566 -0.09544046 0.034321606 -0.14901169 -0.03128794 -0.16186439
0.1444971 0.030977765 -0.112277366 -0.12588304 0.072955325 -0.0016201735 0.003456432 0.12531301
0.038047507 -0.17635205 0.046982575 -0.1078751 -0.053651147 -0.1175884 0.14344464 -0.02973502
-0.1531469 0.034505393 -0.034897197 -0.17017679 0.011002423 -0.020637779 0.065019056 -0.05301124
-0.023798501 0.108388774 0.06358686 0.01989534 -0.022554398 -0.014960999 0.02822535 -0.012487119
0.12112166 0.056732677 0.018990245 0.07249315 -0.030246822 -0.14192288 -0.08111191 -0.0017070905
0.15031217 -0.11107925 0.020190394 0.018515661 -0.036139093 -0.03573862 -0.12617303 -0.13242878
0.0068758717 0.037952807 0.017976517 0.026010044 -0.03935653 0.038935382 0.045469377 -0.056019366
0.09398105 -0.035973527 0.037738487 -0.020824406 -0.011357549 -0.032865938 -0.13158788 0.010716791
0.030062556 0.10661049 -0.08791304 -0.01793434 -0.05575577 0.05918271 0.08862239 -0.018332232
-0.013147164 -0.120776616 0.10789516 -0.022219123 -0.078181036 -0.054137323 0.16080853 -0.114582986
-0.04649498 0.026226597 0.0793769 -0.11982499 -0.16936624 -0.03358844 0.08785321 0.024258697
-0.02689339 0.1565792 0.004978563 -0.14453575 -0.06496186 0.1086834 0.02600887 0.017218653
0.13050756 -0.0023219285 -0.105111994 -0.02482217 0.051894024 -0.033101026 -0.075966805 0.14080516
-0.026205197 -0.15734409 -0.06584949 0.0057416097 0.03218314 0.0013085889 0.04350897 -0.10000992
-0.18295154 -0.09809758 -0.08663312 0.113428414 -0.02845612 0.0085570095 0.17842443 -0.046934687
-0.010103809 0.069521554 0.17662847 0.0011602148 0.17633422 -0.15423144 -0.0781028 -0.040314134
0.18599598 0.08512469 -0.06682616 -0.14048749 0.090271324 0.08967616 -0.031333786 -0.0063659754
0.122709066 -0.10275337 0.0033421111 0.062354192 -0.1318657 -0.10289506 0.079648316 -0.04193433
0.044884603 -0.1917383 0.050819386 -0.13670824 0.018674776 -0.022203831 0.037476372 -0.08984696
-0.15151033 0.17055878 0.038173378 -0.121011354 -0.007045159 0.016509976 0.057239246 0.073641986
0.10481941 -0.051035047 0.0113910325 -0.047657542 0.03958035 -0.11337859 -0.057710428 0.046634495
0.07340907 -0.06780248 0.019719468 0.17621136 0.0032448291 -0.1399445 -0.11550776 -0.080861695
-0.10178328 -0.10792883 0.016539041 0.010601402 0.14207137 0.033589963 -0.03202206 -0.028027259
0.09161873 -0.12290517 -0.077777855 0.0465716 -0.013101379 0.074615866 0.017725218 -0.0077317855
-0.039690334 0.17944892 -0.1614502 0.017772602 0.014841234 0.018857159 0.07172239 0.02208407
0.047337957 -0.075226 0.023751222 -0.070058145 0.09204607 -0.032200553 0.08380249 -0.16964251
0.04057915 -0.063251965 0.10853657 0.086393185 -0.06441837 0.03600563 0.11594825 0.006664402
0.14133222 0.1383521 0.019957175 -0.035320293 -0.048378453 0.021203674 0.03610206 -0.04100822
0.10395478 -0.0030468167 -0.13601325 -0.05553756 0.0022608729 -0.04071154 -0.080350004 0.050980978

lstm.bias_ih_l1 f4 [256]
00000000: e4b3 063c d73f 8ebd 2c65 26bd b0f6 4f3d
00000010: 802e 213d 9906 613c 31d3 d93a 10a1 42bd
00000020: 313f 263e c80a 6ebd d15f 3dbd be58 9e3d
00000030: 6986 373e 7d2b 023e 20b1 ad3d 964f bd3c
00000040: 6e09 5a3c dc6d 803d 9b20 7e3d e212 1cbd
00000050: 19c3 823d 637e fa3d ee18 4bbd 3688 e13b
00000060: 7252 603e 0c17 fc3d fa80 863d bbc2 3dbc
00000070: 39f7 e73d 970e bdbd 93cf e2bd c9f7 a13d
00000080: 1d4d d73d 3c8d 0a3e 6f82 b33d 5ee2 57bd
00000090: 31ef c23c 2fc2 84bd afde 973d 5d24 3f3d
000000a0: 31ac 543d f13c 0e3e fa74 333b a83c eb3d
000000b0: 3ba0 6b3d de05 4d3e 482e dabc 2943 6d3c
000000c0: 56f3 d23d b412 143e d47f 8f3d 983d be3c
000000d0: 8c29 493b d30d 40bd 770f 0d3e 8e00 b53d
000000e0: 18ab 373c 579c 35bd be7f 3dbd 4505 04bd
000000f0: a164 e53c 2d4b 823c 222c f33d da32 36bd
00000100: ca16 7cbd acc2 85bd a9fb 473e 00e7 a33d
00000110: b296 4b3e 3125 be3d 3282 9abd cd62 9b3d
00000120: 125e eabc 87c9 043e 4d6d 7abd e310 aabc
00000130: 302a e639 d356 a7bd 3c9b 843b 2524 56bc
00000140: 2841 de3d bf34 a63d 457c 3c3b d682 67bd
00000150: ae49 1dbd ef9b ce3b f230 95bb 2fb9 e43d
00000160: 5ccb ee3d fa39 163e d85f fc3d 9a44 7f3d
00000170: b9fe 0a3d 9c38 3dbd 0e05 bf3c 4a14 333e
00000180: a547 233e 8b95 503c 084b 043e 602b 0e3e
00000190: c614 8e3d 4677 c3bb 4511 343e 1956 b53c
000001a0: f45d 2b3e f5d9 aebd 5a7c 853d 0d6f fbbd
000001b0: 767f e43d 8018 7a3d 004e 873d 2a4d c73b
000001c0: 2218 11be 5cfb 073d d60a 773d ca30 31bd
000001d0: c923 223b 0c78 a4bd cfab 2bbe 6ae3 cc3d
000001e0: 594b 873c dfee 95bd bc7a 843c 86d6 9e3d
000001f0: 9bc7 f1bc df60 fc3c 3686 153e 05be 8c3d
00000200: e052 3ebb 0695 a4bd 9f57 83bd bce9 223e
00000210: 4197 f63d 52ca 9bbd 4f95 90bd e899 c8bd
00000220: 5134 0ebe ef8e 2b3d d066 d0bd 826e fd3d
00000230: 6477 403e af39 4dbc 519c b43d 68e1 03be
00000240: eeca ac3d fb77 3fbe d6b8 c73c 1685 d5bd
00000250: ee5d 313e d111 fdbd 07a9 83bd 935b 18be
00000260: bf2a e43d 8fe4 983c 8be3 c73c ba1a f0bd
00000270: a29c 063e fd4e d33d 1fca 823d 3579 1b3e
00000280: 3705 3e3e 21b3 24be 2b19 703d f79a 03be
00000290: cdd2 2dbe de57 f3bd 2643 ca3d cf52 80bd
000002a0: 85c5 ffbd 7283 79bd 4861 1e3e 7735 d9bd
000002b0: 72c3 30be 04db 203d 0d4f cdbc 722a 29bd
000002c0: 32ff 1bbe 9141 3d3e d9b1 16bd b2fa bdbd
000002d0: 4cef bebd bb4b c53d 9beb fcbb 0965 213e
000002e0: 58fd 3a3e 0ad6 3d3d 0807 1f3d a486 873b
000002f0: 075d 083e becf 8dbd 5806 0bbe 86ca a53d
00000300: 6cfd 29bc 4603 2cbd ab11 1b3e 96bd 96bb
00000310: e714 a33c 1387 a13b 75a5 7fbd b6e5 8ebd
00000320: 0ee5 123d 2353 653d fa5c 11bd e628 c63c
00000330: 2eba 273e 0cb8 5cbd ea5a 083e a6a5 5fbd
00000340: 4035 6bbd 369a 103d d86c e1bc 8487 853d
00000350: 3d19 cf3d 2651 0bbd f24d 8cbd f6ef 2e3e
00000360: cb2f c13c 0783 933c 9e75 6e3d 46ac 6ebc
00000370: f761 233e f1b0 26bd c246 b2bc 4738 9ebd
00000380: d97e 48bd 44e9 993c e46d e03c 5ea5 be3c
00000390: b6e7 013e 59eb ab3d 4487 2b3e 7bda ac3d
000003a0: 013b a33d b2d1 fd3c b5d5 103e a577 373e
000003b0: 9c41 cc3c 1caf 99bd ef60 503e a1cb 00bd
000003c0: 8ab4 213e e64f 0c3e 8db8 843d 1002 ce3d
000003d0: c7f4 e73d 2b07 06be 099b 593d 5363 763d
000003e0: bc41 b2bc 7508 393e cd19 cebd cea7 aa3b
000003f0: 27da fc3c 9e18 f93c ff1c ecbb 8804 f3bb
0.0082216 -0.0694577 -0.04062383 0.05077237 0.039350986 0.013734483 0.0016618726 -0.047516882
0.16235043 -0.05811575 -0.046233956 0.0773177 0.17922367 0.12711902 0.084810495 0.023109239
0.013307912 0.06270954 0.062042814 -0.038103946 0.06384868 0.122311376 -0.04958432 0.0068826927
0.2190645 0.12309083 0.06567569 -0.011582072 0.11326451 -0.092312984 -0.11074748 0.079085894
0.10512755 0.13530439 0.087651126 -0.052706115 0.023795696 -0.0648235 0.074155204 0.046665538
0.051922027 0.13890435 0.0027382956 0.11486179 0.057525855 0.2002177 -0.026633397 0.014481344
0.10300319 0.1446026 0.07006803 0.02322273 0.003069493 -0.046888184 0.1377543 0.088379964
0.0112102255 -0.04433855 -0.046264403 -0.032231588 0.028002085 0.015904987 0.11873652 -0.04448209
-0.06154517 -0.06531271 0.19529594 0.08003044 0.19881704 0.092844374 -0.07544364 0.07587204
-0.02860931 0.12967502 -0.061139394 -0.020760005 0.0004390045 -0.08170857 0.0040468257 -0.013070141
0.10852271 0.08115529 0.0028760594 -0.05652126 -0.038400345 0.00630521 -0.004552954 0.111681335
0.116598815 0.14670554 0.12322968 0.062321283 0.03393433 -0.046196565 0.02331784 0.17488208
0.15945299 0.012730966 0.12919247 0.13883734 0.06937556 -0.0059651462 0.17584713 0.022135781
0.16735059 -0.08537666 0.06517859 -0.12277041 0.11157124 0.06105852 0.06606674 0.0060821967
-0.14169362 0.0331987 0.06031307 -0.04325942 0.0024740568 -0.080307096 -0.16764759 0.10004313
0.01651542 -0.07320952 0.016171806 0.07755761 -0.029514125 0.03080791 0.14601979 0.06872181
-0.0029041097 -0.080362365 -0.06413197 0.15909475 0.12040568 -0.07606949 -0.07059728 -0.0979498
-0.13887145 0.04188436 -0.1017586 0.12374593 0.18795544 -0.01252596 0.088188775 -0.12878954
0.08437143 -0.18698113 0.024380129 -0.10425775 0.17320988 -0.12356914 -0.06428724 -0.14878683
0.11140966 0.018663673 0.024400493 -0.11723848 0.13145688 0.103178 0.06386208 0.15182956
0.18556677 -0.16083957 0.058617752 -0.12852083 -0.16974945 -0.11881994 0.09876089 -0.062657945
-0.12488846 -0.06091637 0.15466797 -0.10605901 -0.17262056 0.03927137 -0.025062108 -0.041300245
-0.15234068 0.18482043 -0.036790702 -0.09276332 -0.09322986 0.09633585 -0.007718516 0.15761198
0.18260705 0.0463467 0.038825065 0.0041359235 0.13316737 -0.06924389 -0.13576639 0.08095269
-0.010375362 -0.04199531 0.15143459 -0.004600237 0.019907428 0.004929432 -0.06241365 -0.06977408
0.035862975 0.05598749 -0.03548906 0.024189424 0.16379616 -0.05388646 0.13315931 -0.054601334
-0.05742383 0.035303317 -0.027517721 0.06519988 0.10112236 -0.034012936 -0.068508044 0.17083725
0.02358236 0.018006815 0.058217637 -0.01456744 0.1595534 -0.04069609 -0.021762256 -0.07725578
-0.048949096 0.018787988 0.02739615 0.023272213 0.12686047 0.083944984 0.16750818 0.08440109
0.079702385 0.03098378 0.14144023 0.17916735 0.024933629 -0.075041026 0.20349477 -0.031444196
0.15791526 0.13702354 0.06480513 0.10058987 0.113259844 -0.13088672 0.05312637 0.060153317
-0.02175986 0.18069632 -0.10063515 0.005207992 0.030865742 0.030407246 -0.007205605 -0.0074163117

lstm.bias_hh_l1 f4 [256]
00000000: 78b5 e13d 1890 083d e087 2f3d 4c19 e03c
00000010: e3ec c03c 8450 69bd 9a5c d53c 50d7 283b
00000020: fba7 1c3d ef80 b2bd 5afb f23d a0be 173e
00000030: bf1d 583d 2beb b1bc f4be c53d d36e 4dbd
00000040: b9eb 63bc 0dd1 afbd e9d3 da3d 7e89 b53d
00000050: bf76 103e 43a3 053d d9b3 dfbd 98be c43d
00000060: c2d7 503d e7e8 763c 7027 b5bc c5c1 003e
00000070: ffec 95bd bfcd 86bd 0b09 86bd c304 5dbc
00000080: 2d16 d33d 23bc 883d 9a48 a53d 9dc7 2dbb
00000090: 4935 023e 61e4 9c3d 2847 cc3d 92da 20bd
000000a0: fb1f 003e 8ddc 25bd 8d24 513e 556f 383e
000000b0: 5cab 433e 3dfa 493d 06e5 243e 78ea d93d
000000c0: e8ee 1a3e 2c71 403e e3f9 e13d f980 b7bd
000000d0: 0665 5fbd f4a8 25bd 57b2 a83d f886 d33d
000000e0: 0b27 d33d 095c d73d 2fa1 fabc b7bd 15bd
000000f0: 4252 0fbd 9342 96bd b772 bbbc 48b5 d33d
00000100: a47d 6e3d bd51 ca3d 5d2a 773d 4496 90bd
00000110: d000 eabc cab9 80bc 5456 273d 64cb 45bd
00000120: e26c ebbd 6ef7 e83d cb77 2e3c 85a4 3a3d
00000130: 68f3 93bd 87da a53d 7f33 b83d 9209 033d
00000140: fc83 f83d 70c5 693d ea24 023e 14b2 9fbd
00000150: dfde ef3d 4048 073e 9f44 b63d 23d2 8c3d
00000160: d855 8b3d 4505 003c 1f4e 803d 571c 1f3e
00000170: 6b46 01bd 3d02 eb3d 4986 f3bd 18f5 15bd
00000180: b26d c43b 2fc5 403d 74a5 963c cc7c 393d
00000190: d7d8 a23d 74f9 7f3c 05a0 18bd b181 233b
000001a0: fa35 733d d275 ecbd 132d b73d 7db6 89bd
000001b0: f6e0 96bc da75 1c3e 4e07 423d 22e6 863d
000001c0: 9b9c 05be 5501 fe3d ef4b b7bd 3e41 083d
000001d0: 48be 1bbd bc92 af3c a4d7 073d d08a a13d
000001e0: 81df c6bd 88aa 7cbd 9bda 543c be20 dc3d
000001f0: f1d8 163c 6c7c 64bd 85f2 9f3d 4837 013d
00000200: 025d 2b3e 2876 4dbe 9dc9 00be 524c 3fbb
00000210: f271 203e b285 9ebd 53c7 193d aa3f 79bc
00000220: ba64 5fbe db1b 3abe d9ce 0ebe e71e 0e3d
00000230: 4978 2e3e e53d e33d 560a 813c e189 c0bd
00000240: 24c1 003e 2da8 3fbc 3690 513e 2a47 c1bd
00000250: 8d6b 453e 9d28 4abe 5dba f6bd 75fb e0bc
00000260: 46a8 433e 680f e23d c8b7 25be 9b07 acbd
00000270: d319 4c3e 01f6 863d a200 2db9 dfaf eb3d
00000280: 4561 2e3e ae85 2abd a971 983c 6c35 d2bd
00000290: e01a 623c 6c4e 21be 5ec6 403e ba79 53bd
000002a0: 6ea8 f5bc 1e78 37be e74b 1c3e a65d e2bd
000002b0: f923 fdbd 67d8 1e3d 8769 213e 1574 33bd
000002c0: 20eb 27be 51d5 753d d686 da3d 240a 1bbd
000002d0: 7331 1fbe 9228 0bbd 9039 793c bad3 563d
000002e0: e035 0cbd b1f4 4b3e af44 1ebe 2ca6 a23d
000002f0: f4c1 ae3d c4e2 0d3d 8ce9 23bd 1765 273e
00000300: 43e3 fb3d 0b87 c23d 8651 e63d 5029 e83c
00000310: f899 223e a169 e6bc 9d01 853d bce0 0abe
00000320: 31cf 843d 3836 d5bd dcce 133d 11f2 f73b
00000330: e58e 853d 82b0 36bd cfec 863d b1e1 b3bc
00000340: 0ab1 ff3c 4bf5 99bc 08a4 0a3e 4d86 2ebd
00000350: 2513 fa3d e8ef f13d 904f 09be dd89 913c
00000360: 9fb2 223c 324d 92bd 9748 7a3d d561 74bd
00000370: 7fc1 943c 0013 8cbd e379 48bd 164d e43d
00000380: dc7e ccbb 8cb1 ae3d 1050 203e 3f05 2dbe
00000390: d791 f93d 23ac 7f3d e62a 4f3d 3e0f 41bd
000003a0: de8c 0e3e bff2 533d bb87 57bd 5035 3d3e
000003b0: a1d3 383e 1632 b5bc 60b8 9d3d b873 3d3d
000003c0: 6fdd 68bd 8ff9 ac3c 6ee1 f2bb d362 a93c
000003d0: 95cc 433e 4cd7 efbd 241d 413e 5b64 a93d
000003e0: 9a0f 0ebe 7cfc 3c3e 4b1a c3bc 599e f83c
000003f0: e32e 51bd 7382 673c 45c9 30bc 5152 0abd
0.110209405 0.033340544 0.04285419 0.027355812 0.023550456 -0.05696155 0.026045132 0.0025763102
0.038246136 -0.087159984 0.11864348 0.14818811 0.052762743 -0.021718582 0.09655562 -0.05015452
-0.013911181 -0.08584795 0.1068495 0.08864115 0.14107798 0.0326264 -0.10922975 0.096066654
0.050987013 0.015070177 -0.022113532 0.12573917 -0.07320594 -0.06582212 -0.065446936 -0.013489905
0.10306964 0.06676509 0.08070488 -0.0026516684 0.12715639 0.07660747 0.099745095 -0.039270945
0.125122 -0.040493537 0.204241 0.1801122 0.19108337 0.04931091 0.1610299 0.106404245
0.15130198 0.18793172 0.1103399 -0.089601465 -0.054539703 -0.04044433 0.082371406 0.103284776
0.10310181 0.10515601 -0.030594436 -0.03655788 -0.034990557 -0.07336917 -0.022881849 0.10337311
0.05822529 0.098788716 0.060343135 -0.07059911 -0.02856484 -0.015713591 0.040853813 -0.04828967
-0.11495377 0.113753185 0.010648678 0.045567054 -0.072241604 0.080983214 0.08994197 0.03199155
0.12134549 0.057073057 0.12709394 -0.077976376 0.11712431 0.13211155 0.08899807 0.06876018
0.06803483 0.007813756 0.062649004 0.15538155 -0.031561296 0.11475036 -0.11890847 -0.036610693
0.005994522 0.04706305 0.018389441 0.04528503 0.07951515 0.015623439 -0.03726198 0.0024949128
0.059377648 -0.1154591 0.08944144 -0.0672426 -0.018417817 0.15279332 0.047370248 0.06586863
-0.13048021 0.12402598 -0.0895003 0.033265345 -0.038023263 0.021432273 0.033164635 0.078878045
-0.09710599 -0.06168607 0.012991573 0.107484326 0.009206996 -0.05578272 0.07809929 0.03154686
0.16734698 -0.20064604 -0.1257691 -0.0029189778 0.15668467 -0.07740344 0.037543606 -0.015212933
-0.21815768 -0.18174689 -0.13946094 0.03469744 0.17038073 0.1109579 0.015751999 -0.09401298
0.12573677 -0.011697811 0.20465168 -0.094374016 0.19279309 -0.19742055 -0.12047265 -0.027463654
0.1910716 0.11038095 -0.16183388 -0.08399888 0.19931726 0.0658989 -0.00016498801 0.11508154
0.17029293 -0.041631393 0.018608885 -0.10264096 0.013800353 -0.15752572 0.18825671 -0.05162976
-0.02998754 -0.17916915 0.1526333 -0.11053018 -0.12360377 0.038780596 0.15762912 -0.043811876
-0.16398287 0.060017888 0.10670249 -0.037851468 -0.15546207 -0.033974238 0.015211478 0.052448012
-0.034231067 0.19917561 -0.15455888 0.07941851 0.085330874 0.03464009 -0.04001765 0.16347156
0.12299206 0.09498414 0.11246018 0.028340012 0.15879047 -0.02812654 0.06494448 -0.13562292
0.06484831 -0.10410732 0.03608595 0.0075666984 0.065213956 -0.044601925 0.065881364 -0.021958204
0.031212348 -0.018793723 0.13539135 -0.042608548 0.12210683 0.118133366 -0.13409257 0.017765934
0.009930282 -0.0714363 0.061104383 -0.059663612 0.018158672 -0.068395615 -0.048944365 0.111475155
-0.0062407088 0.08529958 0.15655541 -0.16896532 0.1218602 0.06242002 0.05057802 -0.047133677
0.13920924 0.051745173 -0.052619677 0.18477368 0.1804948 -0.02211861 0.07701182 0.046252936
-0.0568518 0.021115093 -0.007412127 0.020677006 0.1912101 -0.117109865 0.18858773 0.082710944
-0.13873139 0.1845569 -0.023816248 0.030348944 -0.051070105 0.014130223 -0.010790174 -0.03376991
